sever/dqn_player1.pth (torch, 94320 bytes, 6 tensors)

layer1.weight f4 [128, 42]
00000000: 573d 3fbd 991e 49be 60ee b4bf f027 88bf
00000010: dc97 c9bd ae87 2dbe 4f90 7abf 8574 89be
00000020: d518 30bf 517c a9bf 7876 82bf 3838 17be
00000030: 8a48 18be 77f6 88bf 3e39 60bf f1d2 6abe
00000040: 4107 84bf 6521 6ebf aded 083e 7ca6 12bf
00000050: 7fc2 a3bf 58e9 0dbd 8f14 29bf e3e9 6cbf
00000060: 96f8 44bf f66b 75bf 9d64 88be c576 89bf
00000070: 6029 ab3e 44ed 7dbf 088e 493e 0427 1cbf
00000080: 06f0 95be 7527 043f ff4f 973e 4c6c cf3f
00000090: 7862 523f 88fc 903f fc17 de3e 9a8b 01bd
000000a0: 1cac 9a3f f4d9 5e3f d2b2 113d 68cb c3be
000000b0: 5daa a9bf e385 69bf fb8b 17be e975 48be
000000c0: e8e5 81bf 5c00 2ebe 48c6 40bf 2e02 94bf
000000d0: 75e9 94bf b0f3 3ebd 98dc c8be 9254 87bf
000000e0: aee6 36bf 5dd2 e9bd fa1b 7bbf 0479 90bf
000000f0: 1e8e 57bd 2f9b 31bf 239e a5bf bc55 fd3d
00000100: e3a3 58bf 6aca 77bf 6612 0bbf 06df 6fbf
00000110: bc14 44bd 6016 9fbf 466d ee3e 9502 40bf
00000120: a85e 633e 6b31 0cbf 4ebe b7be b3c0 ca3e
00000130: 6fc3 913e 9ec3 df3f e884 593f 6285 903f
00000140: 8d1f b33e 8e88 46be b9b8 bc3f c0a3 7d3f
00000150: 2a25 4f3c 323f afbe 1421 98bf ad10 7bbf
00000160: 409d 093c 32e7 a4be 5470 60bf bb31 adbe
00000170: 69c7 34bf 65f7 a3bf 5f33 8abf 9a38 a8bd
00000180: da67 d6be b64f 98bf 6088 3fbf 5b67 8dbe
00000190: c227 93bf aa89 60bf 8fb9 98bd e4b1 23bf
000001a0: 8c2c b5bf e221 c2bd b961 3fbf a1b6 79bf
000001b0: d00d 1bbf 08e0 46bf eaa4 b4be fe5e afbf
000001c0: 3c55 4b3e 4ddc 80bf 9a28 5e3e 57bb 2bbf
000001d0: 523b b6be f371 e43e d5cd be3d c615 cc3f
000001e0: 6fe6 233f 0985 8a3f 6e51 f63e a5ad 64be
000001f0: b36d a03f 3ca8 3a3f 9c5e 27bd fb2a 5fbe
00000200: 90db a8bf cf03 71bf 84ae 123d 0f2d d6be
00000210: a400 6dbf d1f9 a7be 8044 50bf 2011 9fbf
00000220: 0269 84bf 70e7 44bc d734 b7be 94d5 a9bf
00000230: c135 6fbf a965 edbd 1a2b 82bf 2223 8fbf
00000240: 844c 64bd 76b2 05bf 025b aebf e104 c3bd
00000250: e27f 1dbf e08d 73bf be2a 35bf 5604 75bf
00000260: f09b bcbe b927 a0bf 69ef 6d3e 0d5d 7fbf
00000270: 241e c33e 1e15 49bf e7b8 c1be ff69 993e
00000280: 33bc a53e 15db b93f 7b7f 113f d6b1 513f
00000290: 8581 8b3e dfa0 42be b128 a33f a7fd 3e3f
000002a0: f128 48be 8343 9fbe 050e aabf 7f7a 7abf
000002b0: f921 bebd a3c8 88be cea5 64bf 9898 6ebe
000002c0: 9e84 18bf 91e6 9abf 4a13 88bf 72a9 a9bd
000002d0: fdca 42be d5ac a8bf 4327 4cbf 4132 103d
000002e0: fc77 83bf fa33 81bf 35a6 cabd 88ff d6be
000002f0: ea51 9ebf 0575 4d3d fb35 23bf 37ca 62bf
00000300: 5110 45bf c2fd 68bf 6bee 6dbe a1e6 93bf
00000310: d2eb 9d3e bdc2 79bf 3277 ac3e 5c20 0fbf
00000320: 774d eebe cc42 043f 531e 373e 2552 e03f
00000330: faf8 413f 7014 903f 005c e23e 6cd7 46bd
00000340: d4d4 b83f 38f5 653f bb4a 82bc 586b 99be
00000350: 0c17 b7bf 4922 93bf 7681 cf3d 7932 28be
00000360: 0a6e 8dbf 7d7e 19be 75df 1abf bd05 a8bf
00000370: 9817 7bbf ffea 073e e24a b3be 1f8c a1bf
00000380: b59c 38bf 4524 3dbe 0828 7ebf a171 8fbf
00000390: f82b bc3c 2ad3 d9be 2025 b6bf 8d0b 893e
000003a0: 8c5d 33bf f690 68bf 2094 35bf 49f0 81bf
000003b0: 0df9 efbd 43d4 a1bf 4662 aa3e a3f7 7ebf
000003c0: fc5d 883e 6618 fdbe 5852 b3be 131a 233f
000003d0: 3c98 e13e c234 cf3f cb77 563f 29fa 933f
000003e0: fa29 093f be9c 83be be4c a23f db62 5f3f
000003f0: 00b0 07be c33c 1abe 7e2c abbf 1a85 65bf
-0.046689358 -0.19640578 -1.4135246 -1.0637188 -0.09843418 -0.16946289 -0.9787645 -0.2684671
-0.6878789 -1.3241063 -1.0192404 -0.1476754 -0.14871421 -1.0700215 -0.87587345 -0.2293203
-1.0314714 -0.93019706 0.13371916 -0.57285285 -1.279373 -0.034646362 -0.66046995 -0.9254438
-0.7694181 -0.9586786 -0.26639262 -1.073937 0.33430004 -0.99190164 0.19683087 -0.60997033
-0.29284686 0.51622707 0.2955322 1.6204925 0.821815 1.1327066 0.43377674 -0.031627275
1.2083774 0.8705132 0.035570927 -0.38241124 -1.3255116 -0.9121992 -0.14799492 -0.19576229
-1.0148287 -0.16992325 -0.75302553 -1.1563165 -1.1633745 -0.046619117 -0.392308 -1.0572684
-0.7144574 -0.11417077 -0.98089564 -1.1286931 -0.052625768 -0.69377416 -1.2938884 0.12369868
-0.8462507 -0.96793234 -0.5432495 -0.9369968 -0.047871336 -1.2428703 0.46567744 -0.7500394
0.22204077 -0.54762906 -0.35887378 0.39600143 0.28469416 1.7481573 0.84968424 1.1290705
0.3498501 -0.19388029 1.4743873 0.9907799 0.012643138 -0.34227902 -1.1885095 -0.9807232
0.008399308 -0.32207638 -0.876714 -0.33827004 -0.70616776 -1.2809874 -1.0796927 -0.08213921
-0.41876107 -1.1899326 -0.74817467 -0.27617916 -1.1496508 -0.8771006 -0.074572675 -0.63943315
-1.415422 -0.09479119 -0.7475849 -0.97544295 -0.6056795 -0.77685595 -0.3528207 -1.3700864
0.19856733 -1.006723 0.21695176 -0.6708273 -0.35592133 0.44618186 0.09316603 1.5944145
0.6402349 1.0821849 0.48109 -0.22331865 1.2533478 0.72912955 -0.04086171 -0.2179374
-1.3192005 -0.94146436 0.035810962 -0.41831252 -0.925791 -0.32807782 -0.8135452 -1.2427101
-1.0344546 -0.01201807 -0.357825 -1.3268304 -0.93441397 -0.11591656 -1.0169404 -1.1182597
-0.055737033 -0.52225435 -1.3621523 -0.09522415 -0.6152326 -0.9513836 -0.70768344 -0.9570974
-0.3683772 -1.2512122 0.23235859 -0.9975136 0.38108933 -0.7854785 -0.37836382 0.2996368
0.32370147 1.4519984 0.56835145 0.8191198 0.27247253 -0.1900668 1.2746793 0.7460579
-0.19546868 -0.31106195 -1.3285528 -0.97843164 -0.092838235 -0.26715574 -0.893155 -0.23300397
-0.5957736 -1.2101613 -1.0630887 -0.08284272 -0.19022746 -1.3177744 -0.7974741 0.035204176
-1.0270991 -1.0093987 -0.09894983 -0.4199183 -1.2368748 0.050160427 -0.6375424 -0.88589805
-0.7697802 -0.91012204 -0.2323548 -1.1554757 0.3084398 -0.9756277 0.3368469 -0.5590875
-0.46543476 0.51664424 0.17882662 1.7525069 0.75770533 1.1256237 0.44210815 -0.048545286
1.443995 0.898273 -0.015904775 -0.2996471 -1.4303908 -1.1494838 0.101321146 -0.16425504
-1.1049206 -0.14989658 -0.6049722 -1.3126751 -0.98082876 0.13273238 -0.3501807 -1.2620887
-0.72114116 -0.18470867 -0.9927983 -1.1206552 0.022970185 -0.42543918 -1.423008 0.26766625
-0.70064616 -0.9084619 -0.70929146 -1.0151454 -0.117174245 -1.2642902 0.33278102 -0.99596614
0.26634204 -0.49432677 -0.3502376 0.6371166 0.44061458 1.6187975 0.8377654 1.1560718
0.53579676 -0.25705522 1.267967 0.87260216 -0.13250732 -0.15062241 -1.3372953 -0.8965622

layer1.bias f4 [128]
00000000: ca09 4440 7157 4540 b539 4840 79b5 4840
00000010: 57a9 4940 ef8f 4b40 39ea 3940 5299 3140
00000020: 57a9 4940 2ed9 3b40 babd 4a40 f12b 4640
00000030: acdc 4e40 794f 4840 6f43 4a40 bce2 3c40
00000040: d057 3d40 8a78 4140 1c8a 4b40 9c0a 3740
00000050: 99ff 3d40 1319 3a40 8990 4640 ed1f 3740
00000060: 8db6 4540 905e 4540 cc54 4d40 5161 3740
00000070: faf4 4640 e860 4a40 fad8 4140 1a9e 4940
00000080: 4ce5 4940 ff35 3a40 2591 3340 8a6a 4340
00000090: ad7b 4240 650b 3c40 c695 4940 953a 4040
000000a0: 052b 4e40 0baa 4c40 d4a3 3c40 01ec 3e40
000000b0: f9f3 3f40 4ea0 4940 d872 4140 bfe5 4540
000000c0: 50dc 4140 33e7 4a40 d12b 4c40 9b50 4440
000000d0: e39b 4540 0921 4740 dec0 4540 7b91 4640
000000e0: d907 3f40 2c4d 3b40 7291 4140 d911 4c40
000000f0: e380 4a40 3a25 3f40 36b7 4940 ca53 3d40
00000100: 79e0 3f40 0d9e 4640 28c4 4a40 2d2d 4c40
00000110: b8db 4540 343d 3f40 bc78 4640 c1a5 3b40
00000120: 694c 3940 b986 3c40 cbc6 4240 8a4f a63e
00000130: 5740 4540 b1d4 4540 505f 3940 6591 4840
00000140: b3e0 4140 3ae8 4440 c767 4a40 8d15 3d40
00000150: 5e5d 4740 cbcf 1f40 f4dc 4b40 9ff6 4440
00000160: c99d 4c40 1ce5 3c40 4ba4 4940 62de 4440
00000170: bbfe 3940 c504 4b40 0941 4c40 fa03 3c40
00000180: 497d 4b40 6ed9 4540 caaf 3f40 4dcb 3740
00000190: 4f0a 4540 cde4 3a40 3780 4140 68e5 3a40
000001a0: ebe0 3740 8752 3d40 fc6d 4940 6b54 4040
000001b0: 8c53 3e40 6668 3740 a54a 4240 5b2a 2e40
000001c0: cc35 4340 1792 4040 ce9c 4640 e2e6 4040
000001d0: 6fec 4740 1b9b 4140 c995 3c40 e760 4b40
000001e0: 709b 4840 72dd 3f40 f2e1 4440 e2f0 3640
000001f0: 02b8 4840 915c 4740 ec07 4940 746e 4040
3.0630975 3.083462 3.1285222 3.1360762 3.1509607 3.18066 2.9049208 2.774983
3.1509607 2.9351306 3.16783 3.096432 3.2322187 3.1298506 3.1603658 2.9513388
2.9584846 3.0229821 3.1803045 2.8600225 2.9687254 2.9077804 3.1025717 2.8613236
3.089267 3.0838966 3.2083006 2.8653147 3.1087022 3.1621647 3.0288682 3.1502748
3.1546202 2.9095457 2.805734 3.0533776 3.0387986 2.9381955 3.1497664 3.0035756
3.2213757 3.1978786 2.9474993 2.9831545 2.999266 3.1504092 3.0226345 3.0921476
3.0290718 3.1703613 3.1901743 3.0674198 3.0876396 3.1113913 3.0898967 3.1026294
2.984854 2.9265852 3.0245023 3.1885893 3.1641166 2.9866471 3.1518073 2.958239
2.9980757 3.1033967 3.1682224 3.1902573 3.0915356 2.9881105 3.101119 2.9319918
2.8952887 2.9457228 3.0433834 0.32482558 3.082052 3.0911067 2.8964424 3.1338742
3.0293396 3.076674 3.162584 2.9544404 3.1150737 2.4970577 3.185361 3.0775526
3.1971304 2.9514837 3.1506526 3.0760732 2.9061725 3.172166 3.1914694 2.9377427
3.1795218 3.0913959 2.9951043 2.8717835 3.0787542 2.920215 3.0234506 2.9202518
2.873103 2.958162 3.147338 3.0051525 2.9738493 2.865747 3.035806 2.7213352
3.0501585 3.0089166 3.1033206 3.014092 3.1238058 3.025092 2.9466422 3.1777894
3.1344872 2.997891 3.0762906 2.8584523 3.136231 3.1150248 3.1411085 3.0067415

layer2.weight f4 [128, 128]
00000000: 53ac dbbb 49f8 31bd 11ec d1bc 9d85 1dbd
00000010: 375b 3ebe c62a a0bd 19cd 09bd 6f2e 8e3b
00000020: 6e44 86bd 754a a9ba 5255 013e 0aeb 15be
00000030: 27f1 6dbc 0615 03bc 8bc4 29bd 7e8a e63b
00000040: eda6 dfbd 5a83 9dbd bfa1 ad3d 6114 003d
00000050: 6d18 f4bc 1299 d3bd e588 b33d 23e2 5dbd
00000060: cb44 d9bd 93b0 babc 61ec 6f3d e769 89bd
00000070: 0526 333c 5965 6ebc dd1b cbbd 69e3 9fbc
00000080: e63b dbbd 1c06 ebbd 5dc9 d6bd f080 cbbd
00000090: 1247 8d3d e7e9 adbc 19e5 36bd 598f f8bd
000000a0: 045d a1bc f2ee bdbd ef0d 24bd 441a 34be
000000b0: 7fe8 e5b9 a421 a23c 94bc 6f3d 8e25 22bb
000000c0: 8d21 aabc 4b60 0abe 8baa 3abe f342 343c
000000d0: a530 84bb 5886 3b3d 718e 3fbe 647c aebd
000000e0: 2920 933d b941 75bd ad78 22bd f12a 83bd
000000f0: ce5d 8e3d 945c 0fbd ace0 5dbd a400 22be
00000100: 5c16 03be 276d 36bb 98d0 5bbe 80d1 003c
00000110: ede8 643d 56e6 c6bc d156 15be 0277 733c
00000120: 06be 1e3d 8882 b13b 1d9d 9bbd c159 323e
00000130: 3838 1bbe 9b40 87bd 6dc2 2e3d ea0f 0ebd
00000140: 58a0 ecbd 2c33 03be e527 ba3d a22a 1b3d
00000150: 36f4 453d 7955 253d 916e 3fbe 5b7b 1dbe
00000160: 0d00 a03d 82a2 c13c ddcb 3dbd 3a45 16bd
00000170: 52bd 5cbe 1541 643d 4c6c a9bc 3357 a03c
00000180: 5c15 5abd 6ff6 09bc 4930 99bd dfd7 3dbc
00000190: 7725 50be 4b6d 093c 7dde 30be 55e3 3fbd
000001a0: 8cdc 953c 6e0e 99bd 9284 8c3d af8f c7bd
000001b0: b917 bbbd 0797 293c a4be 663d bd0d c83c
000001c0: 35b8 52bd 57fd 23be d77c a6bd 12bb e0bd
000001d0: e842 d1bd 11d9 443d f69f 913c ba7a 763d
000001e0: eda2 85bd 7f1a 31be 3ebd 03be 6e9f 2f3d
000001f0: 65fc a23d 16c5 bd3c 66a2 d3bd d322 e7bd
00000200: 3a94 a33f 3c94 923f fadd be3f 838b c73f
00000210: 9157 913f b9e3 a03f abb8 ad3f 718e a93f
00000220: a4ab af3f a859 883f 6c48 8a3f 818c c93f
00000230: 9f09 9f3f abbf 973f 2b34 c43f 9c71 a53f
00000240: 320e a63f ce18 a93f adcd ab3f fb0f 9a3f
00000250: c2cf 8a3f 97c2 9a3f c0eb 933f 593d c63f
00000260: 6574 ba3f b507 9e3f e861 ab3f e629 b03f
00000270: 7027 993f 1983 a23f 2a1b a33f 0e7c 943f
00000280: 95d4 a13f ab88 b93f e711 cb3f 1d8c 963f
00000290: 7aa5 853f e1b3 a73f fd35 9a3f 9be7 963f
000002a0: 6688 963f 1761 bc3f 3397 973f 00f8 af3f
000002b0: 8c14 9c3f 1451 9e3f 7409 ac3f a1f5 9d3f
000002c0: f25e 9c3f 8144 a33f 85aa a13f fdbd 9c3f
000002d0: 93cb a33f bed4 8e3f a74e 9e3f 0be8 9b3f
000002e0: 99ba 943f db72 953f 6448 8e3f 3132 943f
000002f0: 260c a13f f710 bb3f b7fe a23f 9252 bc3f
00000300: 01c5 9d3f ff1a 903f 0dea 963f 91ff 9a3f
00000310: 1354 a93f 6fb2 9c3f f974 ad3f 86d0 973f
00000320: 797f 943f 5877 a43f df30 b73f 12d0 14c0
00000330: cb87 923f 2989 a13f e311 c63f 6958 a03f
00000340: 47dc 893f 05ad ae3f 05bd 9e3f 9d55 9d3f
00000350: b49f 933f 1b27 ba3f b575 9b3f 7a4c a43f
00000360: e80f 8f3f 8d56 9f3f a6fc b93f 8122 ad3f
00000370: d114 9a3f f80b 913f 6af5 9f3f af57 903f
00000380: 374c a53f 0788 953f 52f8 8b3f ba3b b93f
00000390: 83e0 a93f 6fc5 a43f 5bce 8c3f 638e 9f3f
000003a0: 3cd8 b53f 8f08 9b3f fbac 903f 9ab6 983f
000003b0: 7600 973f aa7b 9d3f 6a13 a43f 7246 b33f
000003c0: 8339 933f 048e a83f 967a 8e3f 81dc c53f
000003d0: d77f a33f 4fc1 a03f a86d a83f 687f ab3f
000003e0: b168 973f 39d4 993f 9d4e 913f b81d a73f
000003f0: e806 9a3f 7d21 983f d7b5 a23f dfc4 b13f
-0.0067038923 -0.043449674 -0.02562526 -0.0384575 -0.18589483 -0.078206584 -0.033642862 0.0043390314
-0.06556021 -0.0012915867 0.12630203 -0.14640442 -0.014522827 -0.008000618 -0.041447204 0.0070355525
-0.109205104 -0.07691069 0.08478116 0.031269435 -0.029796803 -0.1033193 0.08766345 -0.05417074
-0.10608824 -0.022789275 0.058575038 -0.067096524 0.0109343575 -0.01455053 -0.09917424 -0.019517617
-0.10704784 -0.11475775 -0.10487626 -0.09936702 0.06898321 -0.021229697 -0.04465208 -0.121367164
-0.019697674 -0.09274091 -0.04005235 -0.17588145 -0.00043851507 0.019791432 0.05852945 -0.0024741623
-0.020767951 -0.13513295 -0.1822912 0.01100229 -0.004034119 0.045782417 -0.18706681 -0.085198194
0.071838684 -0.05987713 -0.039665867 -0.06404675 0.069514856 -0.0350004 -0.054169342 -0.15820557
-0.12801498 -0.0027836056 -0.21466291 0.007862449 0.055886198 -0.024279755 -0.14583899 0.014859917
0.03875544 0.005417172 -0.07598326 0.17417051 -0.15158165 -0.066041194 0.042665888 -0.034683146
-0.11554021 -0.1281249 0.090896405 0.037882455 0.0483286 0.040364716 -0.18694521 -0.15379088
0.0781251 0.02363706 -0.046336997 -0.036687113 -0.21556595 0.05572613 -0.020681523 0.01957283
-0.053243026 -0.008420571 -0.07479913 -0.011587112 -0.20326792 0.008387874 -0.17272373 -0.04684766
0.018293642 -0.07473455 0.06861223 -0.09744202 -0.09135384 0.010350949 0.056334153 0.024420613
-0.051445205 -0.1601461 -0.0812928 -0.10973181 -0.102178395 0.048058573 0.01777647 0.060175635
-0.06525216 -0.17295264 -0.12865159 0.042876653 0.07958297 0.023165267 -0.103337094 -0.11285939
1.277961 1.1451488 1.4911492 1.5589451 1.1354848 1.2569495 1.3571981 1.3246595
1.3724256 1.0652361 1.0803351 1.5746003 1.2424811 1.1855367 1.532842 1.2925296
1.2973082 1.3210695 1.3422142 1.2036127 1.0844653 1.2090634 1.155632 1.5487472
1.4566771 1.2346102 1.3389254 1.3762786 1.196516 1.2696258 1.2742665 1.1600358
1.2643 1.4494833 1.5864838 1.1761509 1.0441124 1.310177 1.2047726 1.178943
1.1760375 1.471713 1.1843017 1.3747559 1.219377 1.2368493 1.3440385 1.2340585
1.2216475 1.2755281 1.2630163 1.224548 1.2796501 1.1158674 1.2367753 1.2180189
1.1619445 1.1675676 1.1115842 1.1577817 1.2581832 1.4614552 1.2733983 1.4712698
1.2325746 1.1258239 1.1790177 1.2109243 1.3228782 1.2241954 1.3551322 1.1860511
1.1601402 1.2848921 1.4311789 -2.3251996 1.1447691 1.2619983 1.5474209 1.2526981
1.0770348 1.3646551 1.2401434 1.2291752 1.1533113 1.4543184 1.2145296 1.2835839
1.1176729 1.2448288 1.4530227 1.3526155 1.2037603 1.1331778 1.249677 1.1276759
1.2913884 1.1682137 1.0935156 1.4471352 1.327164 1.2872752 1.1000475 1.2465328
1.4206614 1.2111987 1.130279 1.1930726 1.1797016 1.2303364 1.2818425 1.4005873
1.1501926 1.316834 1.113116 1.5457917 1.2773389 1.2558993 1.3158464 1.3398256
1.1828824 1.201789 1.1352116 1.3055944 1.2033358 1.188522 1.2711743 1.3888205

layer2.bias f4 [128]
00000000: 2bc7 c23d fd66 3240 54ba 3440 2395 233d
00000010: 2407 c6bd c549 d53e 1371 3540 294a c5bd
00000020: 0d99 2c40 6bb2 2940 f1d1 013d 0cbc f6bc
00000030: 215e 3240 8db5 3340 0359 2740 c240 2d40
00000040: f8ee 3440 958b 3440 7f4d 1fbd 5f6a 3040
00000050: a62f a5bd 7546 2e40 0a1c 3440 b120 ca3d
00000060: 050c 93bd c678 84bd fdd8 07be f777 2b40
00000070: d4f9 9d3b e472 3540 40ff 513d fe98 013d
00000080: 07ad f0bc bd52 2d40 f806 2b40 a63f 2f40
00000090: c6c8 3040 6a6e 8abd ba5f f3bc a882 62bd
000000a0: 8451 bd3d 345a 3340 09b9 3640 9e63 3240
000000b0: 9749 3140 85b0 b5bd 4950 3140 2c88 2440
000000c0: 2f2a 3140 b16d fb3d f3bd 2c40 8fa7 04bb
000000d0: e752 3440 0912 3340 ed5a 3340 349e 10bd
000000e0: 5946 2a40 4ccb 3140 034d 2940 43f9 2640
000000f0: 2abe 2f40 0850 333d cc52 3740 cb12 2f40
00000100: a703 3340 f880 2c40 f4bb 3140 0960 2c40
00000110: d904 573e ca03 3140 edfe e83d 917e 473c
00000120: f8e3 2a40 8e92 3440 7b64 3240 3d19 2e40
00000130: 1e23 2e40 8ebc 953e 1eac 3d3d aa18 d83d
00000140: 97e3 d4bd 3b6a c23c 6b90 2740 1141 193d
00000150: 67a1 d63c bf13 293e c17e 3540 9645 7bbd
00000160: a21f 9fbd 1d36 b93e 849b bdbd e8ec 2f40
00000170: 9e6e 3240 f54f 2f40 288e 2b40 f1d5 a9bd
00000180: bca3 2740 7fe3 cc3d 9e71 3340 a3c8 2e40
00000190: d6b7 3140 3c54 2540 b4ee 2b40 c950 07be
000001a0: 557a 0abd 5395 2d40 f289 4dbd 4eb4 3a40
000001b0: 3b8d 2d3e 0897 2d40 6ed4 b43c f5bf 3140
000001c0: b10b f4bb 9b86 3340 1c90 9e3d 7b39 fd3d
000001d0: 294c a93e e319 3440 4999 cfbd dbe3 023e
000001e0: e5db 883d fd87 2940 2f8c 3f3d 20da 3640
000001f0: 32a6 3040 2b06 b13c 95cf 0fbe f086 f53d
0.095106445 2.787536 2.8238726 0.03993715 -0.09669331 0.41657844 2.8350265 -0.096332856
2.6968415 2.6515148 0.031694356 -0.030118965 2.7869952 2.807956 2.6148078 2.7070775
2.8270855 2.8210194 -0.038892265 2.7564924 -0.08065729 2.7230504 2.8142114 0.09869517
-0.07180027 -0.06468348 -0.13266368 2.679197 0.0048210416 2.8351374 0.051268816 0.031640045
-0.02937938 2.708175 2.6723003 2.7382598 2.7622542 -0.06759341 -0.029708732 -0.055300385
0.092440635 2.8023806 2.8550436 2.7873302 2.7701166 -0.08871559 2.7705252 2.5708113
2.7681997 0.12276781 2.6990936 -0.0020241474 2.81756 2.7979758 2.8024247 -0.035307124
2.6605437 2.7780333 2.6453254 2.6089637 2.7459817 0.043777496 2.8644285 2.735522
2.797098 2.6953716 2.7770967 2.6933615 0.20997943 2.7658563 0.11376748 0.012176172
2.670164 2.821445 2.7873828 2.7202904 2.7208934 0.29245418 0.046306722 0.10551579
-0.10394972 0.023732295 2.6181896 0.037415568 0.02620001 0.16511439 2.8358614 -0.06134566
-0.07769705 0.36174098 -0.09258178 2.7488346 2.7880015 2.7392552 2.6805515 -0.08292759
2.6193686 0.10004329 2.8038096 2.730996 2.7768455 2.5832663 2.6864443 -0.13214411
-0.03380807 2.712239 -0.050180383 2.917255 0.16948406 2.7123432 0.02207395 2.7773411
-0.007447683 2.8050907 0.077423304 0.12364479 0.33065918 2.81408 -0.10136659 0.12782232
0.066825666 2.648925 0.04676455 2.8570633 2.7601438 0.021609386 -0.1404403 0.11988628

layer3.weight f4 [7, 128]
00000000: 9df7 643e a0c5 4e3f 7241 443f 8fed 7c3c
00000010: cb6f a7bd 8f9f ac3e 5165 473f daa9 95bd
00000020: 8016 4a3f 2800 4c3f ff69 29bc e38e 65bc
00000030: 80c8 2e3f 0e5f 433f 7e9c 563f 8fe4 503f
00000040: 9282 473f 345d 303f 7a95 cabb cd52 593f
00000050: 17e7 e4bb e396 433f 5a11 553f 1a69 123e
00000060: ff88 f3bc f0d8 5e3c 9f8f 923d b5ad 4a3f
00000070: 330d 173e aba3 403f a6c3 80bd dc3a 88bd
00000080: 70c9 8cbb f88f 523f 4182 3a3f 8c01 423f
00000090: 4037 4d3f 0837 d33c eb69 033c 02fc 043d
000000a0: e90c 963d 896e 563f d1bb 533f 2db0 3f3f
000000b0: 54e4 343f 475c b2ba 5641 413f f79b 573f
000000c0: 5d21 583f 6793 263e 0a1e 543f 7533 ebbc
000000d0: 04c5 323f e70c 593f cfe7 4a3f 3498 0abd
000000e0: 1e25 423f 9e77 403f a8a3 573f 9cee 583f
000000f0: 3202 583f f55a e03d 10a4 333f dd3c 583f
00000100: 3e92 3d3f a883 513f a005 3b3f dd7f 2a3f
00000110: 6e5c 263e eea5 483f e9c8 0a3e 1767 023d
00000120: 2eea 523f 2b2d 4a3f c3b9 4b3f 2bf6 4f3f
00000130: 37d0 4a3f 2d34 053e 5e1e 1bbc 1fb1 103e
00000140: 30da dc3b a431 66bd 348d 413f d0c2 6e3e
00000150: c10a 463e 2622 2b3e 1fe2 4d3f 1607 86bc
00000160: 30d7 cebc 7f73 653e d160 8bbd ed01 413f
00000170: d4a5 3b3f 0aa2 463f 7c29 333f b0a8 cd3b
00000180: d17e 553f c686 e43c 3d3b 4f3f 7095 583f
00000190: 574e 303f ff40 513f 4ae4 393f d3af 1bbd
000001a0: 03e6 0ebd adc8 473f 99bb b0bc 17d9 493f
000001b0: 8cdf 043e 7335 473f fac8 c53d 8023 4e3f
000001c0: 2c5e 2d3d 9cba 423f 82c3 c13c beab a63e
000001d0: 8d06 363e 9977 583f 5e61 19bd 01b7 133e
000001e0: 5bbf 85bd a206 503f 88ed 163e b84d 383f
000001f0: 5d9b 5a3f e18e 57bd 52e7 23bc b799 f93d
00000200: 9457 6b3d 1039 453f 643a 543f 9957 b43c
00000210: 6dd1 63bd 7513 f1bc 31f2 443f dfdd 953d
00000220: 0cca 543f 97a7 323f 3470 ad3b 2396 9cbd
00000230: f306 3c3f 4270 343f 32ce 513f fe1d 333f
00000240: 74c8 5b3f 32f8 503f fa65 6b3d d435 483f
00000250: e6e4 9f3d 36a4 2f3f bd37 4d3f 5de4 553d
00000260: 7828 733d 8219 5c3d a144 2d3d 266b 3b3f
00000270: 3844 debd d9f4 563f 9467 143d b7c0 163c
00000280: 20a9 293b 4ae0 413f d2a9 553f 68a0 2f3f
00000290: 0caf 573f 0aff 57bd 38f7 8f3d da37 8abd
000002a0: fc8d 1d3d 5bf4 4a3f b5b4 543f e5f5 383f
000002b0: 1552 4c3f b032 c23c 36c3 4c3f b089 3a3f
000002c0: 0e7b 443f bd17 183d ec97 4e3f 4e8f 4fbd
000002d0: 5015 3b3f ba14 403f 069c 423f 2983 f13d
000002e0: e0b9 363f 5ef4 553f 0f42 443f 8eaf 2e3f
000002f0: e5f1 473f 09ca bd3d 008b 513f 2a1c 2d3f
00000300: 077c 333f 7940 583f 941a 503f a6fc 3e3f
00000310: 0c66 b93d c2d5 403f 2e19 d7bd 4a01 6e3d
00000320: b30c 443f 08d6 433f f452 353f 7340 3b3f
00000330: e4ee 373f 5399 6abe 28d0 20bc 9a0a 1c3e
00000340: 9185 493d 9831 8c3c 228c 433f 704b d73d
00000350: 7f99 d13c 3304 db3d 6bc1 4d3f baeb 9c3c
00000360: ef37 a2bd 0094 fabd 2adf 783d 6ef2 453f
00000370: 835f 323f aa6d 4a3f f761 483f 165f a7bb
00000380: a37f 343f bdcc 483e 3457 463f 309e 4e3f
00000390: 3050 4d3f ac79 2f3f fd7d 4e3f c94d 5abd
000003a0: 52b0 2bbd 601b 2e3f 8720 2abd b78e 553f
000003b0: ffe9 2d3e 33d2 583f d1d0 a33c 1625 583f
000003c0: cf29 ffbb d4df 443f ab15 9abc 72f1 cb3d
000003d0: 6140 bbbc 7386 5a3f 70d7 803c 3200 013c
000003e0: 2310 943d 5092 5b3f c25e cd3c 102d 4e3f
000003f0: 7def 513f d3aa 34bd a89c 073c fecb 883c
0.22360082 0.807703 0.7666236 0.015437498 -0.0817562 0.33715484 0.7788897 -0.07307787
0.7894058 0.7968774 -0.010340213 -0.014011118 0.6827469 0.76316917 0.8383254 0.8159875
0.7793361 0.68892217 -0.00618237 0.8489197 -0.006985556 0.7640211 0.832296 0.14297906
-0.02972841 0.013601527 0.071563 0.79171306 0.14751129 0.7524974 -0.06287317 -0.066518515
-0.004296474 0.8225093 0.72855 0.7578361 0.8016243 0.025783077 0.008020858 0.032466896
0.07326681 0.83762413 0.8270846 0.748782 0.706609 -0.0013607823 0.7549032 0.8422236
0.8442591 0.16267167 0.82858336 -0.02871106 0.6983187 0.8478531 0.7925996 -0.03383656
0.75837886 0.7518252 0.84234095 0.8473909 0.8437835 0.10954849 0.70172215 0.8446787
0.7405127 0.81841516 0.7305546 0.66601354 0.16246197 0.7837819 0.13553204 0.031836595
0.8238858 0.7897517 0.79580325 0.81235 0.7922396 0.13008185 -0.009467689 0.14130066
0.006739877 -0.056199685 0.75606084 0.23316503 0.1934004 0.16712245 0.8042316 -0.0163608
-0.025249094 0.2240734 -0.06805576 0.75393564 0.7329991 0.77591 0.69985175 0.0062762126
0.8339663 0.027896296 0.80949765 0.84603024 0.6886954 0.817398 0.72613966 -0.038009476
-0.034887325 0.7804058 -0.021573829 0.7884688 0.12975901 0.7781593 0.09657474 0.8052292
0.042326137 0.76065993 0.023652796 0.32552904 0.17775936 0.8455749 -0.037446372 0.14425279
-0.06530639 0.8126012 0.14739048 0.7199359 0.85393316 -0.052626494 -0.0100038815 0.12187522
0.057456568 0.77040195 0.829016 0.022014426 -0.055619646 -0.029428223 0.76932055 0.07317709
0.831208 0.6978697 0.0052929167 -0.07645824 0.73448104 0.7048379 0.81955254 0.6996764
0.8585274 0.81628716 0.0574703 0.78207135 0.07807331 0.6860994 0.80163175 0.052219737
0.059364766 0.053735264 0.042301778 0.7321037 -0.108528554 0.8396736 0.036231592 0.00920122
0.002588816 0.7573286 0.8346225 0.68604136 0.84251475 -0.05273346 0.07029575 -0.06748934
0.038465485 0.79279107 0.8308824 0.72250205 0.7981275 0.02370581 0.7998537 0.72866344
0.76750267 0.037132014 0.80700564 -0.050673775 0.73079395 0.75031626 0.7601932 0.11792595
0.7137737 0.83576 0.766633 0.68236625 0.78103477 0.09267051 0.8185272 0.676211
0.70111126 0.8447338 0.81290555 0.7460426 0.09052667 0.7532617 -0.105028495 0.058106698
0.7658188 0.7649846 0.708297 0.73145217 0.71848893 -0.22910051 -0.009815253 0.15238419
0.049199644 0.017113492 0.763857 0.105124354 0.025585888 0.1069416 0.8037326 0.019155372
-0.07920825 -0.1223526 0.0607597 0.77323043 0.6967699 0.79073584 0.7827448 -0.0051077707
0.7050726 0.19609351 0.7747681 0.80710125 0.8020048 0.6854503 0.8066099 -0.053296838
-0.0419162 0.6801052 -0.041534927 0.8342089 0.16983794 0.8469574 0.019997032 0.8443159
-0.0077869664 0.76904035 -0.01880916 0.099581614 -0.022857847 0.85361403 0.015727729 0.007873582
0.0722964 0.8577013 0.025069598 0.8053751 0.82006055 -0.044108223 0.008277096 0.016698834

layer3.bias f4 [7]
00000000: 8ca5 c83f a461 993f 6a13 8d3f 9581 e53e
00000010: f655 4e3f 51b4 b53f 4dc3 563f
1.5675521 1.1982923 1.102155 0.44825426 0.80599916 1.4195653 0.83891755
