sever/dqn_player2.pth (torch, 94320 bytes, 6 tensors)

layer1.weight f4 [128, 42]
0.18097126 -0.27687082 -0.97591215 -0.77665746 -0.003975138 -0.29317036 -0.65611273 -0.013325829
-0.44519633 -1.0948279 -0.76857895 -0.15055396 -0.4725829 -0.8528615 -0.685821 0.042965572
-0.94310975 -1.0182959 -0.03774015 -0.5075479 -1.1679473 -0.13833404 -0.5368685 -0.7821829
-0.5588768 -0.7115434 -0.29674312 -1.0084708 0.14707775 -0.77175945 0.12995921 -0.65815485
-0.33031446 0.26140517 -0.06699727 1.3351007 0.3714269 0.70867157 0.18558756 -0.050649382
1.2036339 0.60534275 0.08001405 -0.2195807 -1.164443 -0.73058987 -0.05845183 -0.19053704
-0.6674964 -0.03919972 -0.62936604 -0.8974894 -0.79520226 0.13158755 -0.2800717 -1.0557259
-0.8104143 -0.23482212 -0.8092303 -0.81310016 0.12395148 -0.55478567 -1.182247 -0.018015712
-0.6330283 -0.73500925 -0.59706885 -0.6429795 -0.35585493 -0.9422259 0.07023205 -0.763021
0.21775344 -0.6700006 -0.1864764 0.19159693 -0.06901375 1.2292244 0.3919802 0.75618094
0.29476815 -0.175526 0.9676101 0.7410696 -0.060437668 -0.23008797 -0.9342602 -0.9297953
-0.10989502 -0.14828615 -0.57966113 0.15478203 -0.7046954 -1.024558 -0.9604509 0.15346824
-0.28600618 -1.0209209 -0.95270926 -0.1698484 -1.0014657 -0.8058096 0.09602974 -0.58714944
-1.2205026 0.035298612 -0.71061903 -1.0172971 -0.61012024 -0.5944837 -0.24016415 -0.9617504
0.023478193 -0.84185004 -0.12711118 -0.7248132 -0.18261774 0.005228966 0.039310656 0.8967265
0.349292 0.74521375 0.011596472 -0.09456968 0.8109427 0.49080148 0.07497896 -0.17286591
-0.8638159 -0.7430706 -0.011598572 -0.23992497 -0.7710573 0.22276735 -0.52321523 -0.9653173
-0.90031874 0.13301136 -0.23106867 -1.0609263 -0.75901246 -0.0038802642 -0.8657153 -0.98093516
-0.02075234 -0.57382864 -1.4012936 -0.14525346 -0.63845015 -0.86842936 -0.7594476 -0.6923134
-0.1552319 -1.0622449 0.16479737 -0.76187724 0.15740266 -0.5123979 -0.34766713 0.07673843
0.11109081 1.2493343 0.5074856 0.78562385 0.20619282 -0.27444118 1.1953177 0.488107
0.12652132 -0.11920021 -0.9581992 -0.99842733 -0.05117602 -0.34879738 -0.67570996 -0.03347176
-0.58923846 -1.0941483 -0.7175306 0.021165654 -0.43758658 -0.82758814 -0.8118599 -0.22007091
-0.94381493 -1.0191102 -0.15102468 -0.576831 -1.323926 -0.13985115 -0.81461084 -0.7792952
-0.80778134 -0.62420595 -0.09564124 -1.1440964 -0.04470096 -0.7699454 -0.003907042 -0.5920784
-0.31114265 0.07353498 0.08645709 1.0119034 0.48982516 0.5734258 0.27837732 -0.312705
0.90516657 0.45804295 0.18640545 -0.07114143 -1.1429001 -0.94027543 -0.11341663 -0.22761504
-0.6511224 -0.03609835 -0.5604771 -0.9162647 -0.9619446 0.048952356 -0.2380429 -1.0611261
-0.6319247 -0.21942906 -0.7402796 -0.7317234 0.12949221 -0.3407357 -1.2779402 0.010167323
-0.6938926 -0.8266906 -0.7636451 -0.58722985 -0.10545905 -0.99860364 0.351554 -0.77762526
0.23193789 -0.5796431 -0.33048755 0.39336038 0.06789563 1.1926378 0.40639257 0.9200364
0.31094542 -0.16740488 1.197791 0.54451936 0.08118749 -0.0824511 -0.89141077 -0.83892125
00000000: 8850 393e 03c2 8dbe 61d5 79bf 06d3 46bf
00000010: e041 82bb 6d1a 96be 01f7 27bf 9454 5abc
00000020: c6f0 e3be 5223 8cbf 97c1 44bf d12a 1abe
00000030: 63f6 f1be 2255 5abf f791 2fbf abfc 2f3d
00000040: a46f 71bf 8557 82bf 6a95 1abd a9ee 01bf
00000050: 4c7f 95bf 70a7 0dbe 3770 09bf 233d 48bf
00000060: 8d12 0fbf b527 36bf b7ee 97be 9215 81bf
00000070: 8d9b 163e 0792 45bf 0714 053e d67c 28bf
00000080: fa1e a9be e6d6 853e dd35 89bd 94e4 aa3f
00000090: ab2b be3e 806b 353f aa0a 3e3e ba75 4fbd
000000a0: ad10 9a3f bef7 1a3f 68de a33d c3d9 60be
000000b0: 780c 95bf f007 3bbf 306b 6fbd 241c 43be
000000c0: 0be1 2abf e38f 20bd 221e 21bf dec1 65bf
000000d0: 6092 4bbf e3be 063e 8f65 8fbe 0722 87bf
000000e0: 5077 4fbf 3675 70be b829 4fbf 5527 50bf
000000f0: 46da fd3d 6f06 0ebf df53 97bf b095 93bc
00000100: 250e 22bf 9129 3cbf 81d9 18bf 4e9a 24bf
00000110: 9e32 b6be b735 71bf d2d5 8f3d 5855 43bf
00000120: c2fa 5e3e 2985 2bbf abf3 3ebe fc31 443e
00000130: 1557 8dbd 3a57 9d3f a1b1 c83e 1395 413f
00000140: daeb 963e 16bd 33be 4cb5 773f bdb6 3d3f
00000150: 7d8d 77bd 2e9c 6bbe ad2b 6fbf 1107 6ebf
00000160: a410 e1bd 53d8 17be ac64 14bf 2e7f 1e3e
00000170: eb66 34bf b724 83bf 1ce0 75bf c726 1d3e
00000180: 676f 92be 89ad 82bf c1e4 73bf bdec 2dbe
00000190: 0730 80bf 8a49 4ebf 3eab c43d 6d4f 16bf
000001a0: 6e39 9cbf 4795 103d 21eb 35bf cb36 82bf
000001b0: d730 1cbf 1530 18bf 97ed 75be 4635 76bf
000001c0: 5755 c03c 7c83 57bf 6f29 02be 5c8d 39bf
000001d0: 2500 3bbe bf57 ab3b 3604 213d de8f 653f
000001e0: 67d6 b23e 54c6 3e3f 21ff 3d3c c0ad c1bd
000001f0: f199 4f3f 554a fb3e 928e 993d c303 31be
00000200: 0a23 5dbf e039 3ebf f007 3ebc e4ae 75be
00000210: 0364 45bf 201d 643e 6ff1 05bf 091f 77bf
00000220: 4a7b 66bf 2134 083e 449d 6cbe 6fcc 87bf
00000230: a44e 42bf 084c 7ebb 859f 5dbf 911e 7bbf
00000240: d000 aabc 6fe6 12bf 975d b3bf 53bd 14be
00000250: 7871 23bf 6351 5ebf 286b 42bf 733b 31bf
00000260: 1cf5 1ebe a4f7 87bf a4c0 283e 630a 43bf
00000270: 2a2e 213e 822c 03bf 6d01 b2be 0a29 9d3d
00000280: 9483 e33d 30ea 9f3f 94ea 013f a51e 493f
00000290: 3624 533e 8e83 8cbe 2c00 993f 29e9 f93e
000002a0: ce8e 013e 3d1f f4bd 8b4c 75bf ef98 7fbf
000002b0: f29d 51bd 9295 b2be 54fb 2cbf af19 09bd
000002c0: 55d8 16bf 0d0d 8cbf 16b0 37bf 9863 ad3c
000002d0: 590b e0be d1dc 53bf 0dd6 4fbf 455a 61be
000002e0: db9d 71bf 3472 82bf 37a6 1abe 32ab 13bf
000002f0: 6876 a9bf 2435 0fbe 568a 50bf e47f 47bf
00000300: c2ca 4ebf f6cb 1fbf 8edf c3bd c071 92bf
00000310: 5b18 37bd 241b 45bf a506 80bb 7392 17bf
00000320: 174e 9fbe 8299 963d 6a10 b13d 0d86 813f
00000330: 5dca fa3e 09cc 123f 7987 8e3e df1a a0be
00000340: ffb8 673f 9b84 ea3e 12e1 3e3e 99b2 91bd
00000350: 8d4a 92bf e4b5 70bf fa46 e8bd eb13 69be
00000360: f5af 26bf dddb 13bd 6d7b 0fbf 5390 6abf
00000370: 0042 76bf 4482 483d 85c1 73be fbd2 87bf
00000380: d1c5 21bf 03b2 60be f782 3dbf 3a52 3bbf
00000390: 9b99 043e e974 aebe 8b93 a3bf d894 263c
000003a0: f2a2 31bf ffa1 53bf 3f7e 43bf b254 16bf
000003b0: eafa d7bd 7da4 7fbf e3fe b33e 7312 47bf
000003c0: 2081 6d3e 7d63 14bf aa35 a9be 8866 c93e
000003d0: dd0c 8b3d 5ba8 983f b012 d03e 8187 6b3f
000003e0: 3d34 9f3e 2f6c 2bbe 3751 993f 9f65 0b3f
000003f0: a045 a63d 1fdc a8bd 7f33 64bf 8bc3 56bf

layer1.bias f4 [128]
2.3147929 2.2685676 2.2901053 2.3069253 2.128679 2.483436 2.301587 2.4522026
2.2847414 2.5258377 2.3007207 2.444937 2.225767 2.1439304 2.2959688 2.5023198
2.5386045 2.2218304 2.3912458 2.4943438 2.4877944 2.257077 2.3465607 2.5087233
2.428604 2.3309085 2.3390124 2.3635848 2.2424843 2.4867396 -0.17074785 2.3880968
2.2197645 2.2919164 0.41311464 2.2622259 2.3598254 2.3884482 2.4295485 2.498052
2.2116406 2.4939415 0.4425263 2.4774315 2.3287928 2.5294898 2.3689444 2.369234
2.1249125 2.2581353 2.4950433 2.130841 2.3720975 2.5150464 2.2761195 2.3600361
2.3494847 2.4136763 2.4990904 2.4465516 2.4289873 2.2599335 2.5100431 2.4598122
2.3373108 2.5128722 2.3587854 2.1845818 2.499139 2.3983622 -0.14805293 2.364396
0.4137839 2.454816 2.3000226 2.2111077 2.115776 2.322618 2.4355175 2.2579694
2.3054824 2.2479732 2.4407084 2.4531686 2.4614773 2.5737529 2.360961 2.1318433
0.5584941 2.4111023 2.5164483 2.4124062 2.189727 2.5080256 2.354614 2.439341
2.335738 2.4172902 2.5200653 2.328421 2.4720588 2.449744 2.4992323 2.2603712
2.487259 2.5421808 2.3767443 2.3058527 2.3454096 2.3232846 2.3175259 2.3947322
2.3435726 1.497607 2.1994865 2.3509755 2.4334528 2.232755 2.3703146 2.259566
2.5122085 2.487726 2.3772702 2.2217553 1.5395173 2.3365235 2.494022 2.5186434
00000000: 9125 1440 3630 1140 1691 1240 aaa4 1340
00000010: 473c 0840 9ef0 1e40 344d 1340 e3f0 1c40
00000020: 3439 1240 53a7 2140 023f 1340 d979 1c40
00000030: f772 0e40 2836 0940 27f1 1240 0226 2040
00000040: 7f78 2240 7832 0e40 2c0a 1940 54a3 1f40
00000050: 0638 1f40 f373 1040 0d2e 1640 ec8e 2040
00000060: 3f6e 1b40 9b2d 1540 61b2 1540 f944 1740
00000070: dd84 0f40 be26 1f40 86d8 2ebe 94d6 1840
00000080: 9f10 0e40 c2ae 1240 c383 d33e 4fc8 1040
00000090: 6107 1740 56dc 1840 b97d 1b40 15e0 1f40
000000a0: 858b 0d40 bd9c 1f40 cf92 e23e 3d8e 1e40
000000b0: f10a 1540 29e3 2140 c99c 1740 88a1 1740
000000c0: 91fe 0740 4a85 1040 caae 1f40 b35f 0840
000000d0: 72d0 1740 85f6 2040 f1ab 1140 d50a 1740
000000e0: f55d 1640 ac79 1a40 19f1 1f40 4d94 1c40
000000f0: 8774 1b40 c0a2 1040 8ca4 2040 906d 1d40
00000100: 8096 1540 e6d2 2040 57f6 1640 30d0 0b40
00000110: e5f1 1f40 c47e 1940 309b 17be 4452 1740
00000120: 7cdb d33e b51b 1d40 9233 1340 ca82 0d40
00000130: e068 0740 c6a5 1440 85df 1b40 9282 1040
00000140: 068d 1340 cbde 0f40 9134 1c40 b700 1d40
00000150: d888 1d40 5eb8 2440 fc19 1740 1f70 0840
00000160: 78f9 0e3f 804f 1a40 7d0d 2140 dd64 1a40
00000170: 7d24 0c40 7e83 2040 ffb1 1640 2a1e 1c40
00000180: bb7c 1540 e2b4 1a40 c048 2140 da04 1540
00000190: 3636 1e40 9bc8 1c40 6cf3 1f40 eca9 1040
000001a0: 402f 1f40 17b3 2240 941c 1840 1793 1340
000001b0: 311b 1640 b2b0 1440 5852 1440 4b43 1940
000001c0: 18fd 1540 96b1 bf3f 63c4 0c40 6276 1640
000001d0: b1bd 1b40 75e5 0e40 3cb3 1740 bb9c 1040
000001e0: 06c8 2040 e736 1f40 3225 1840 3d31 0e40
000001f0: e70e c53f 9a89 1540 0e9e 1f40 7431 2140

layer2.weight f4 [128, 128]
0.9765237 0.97590387 1.2064705 0.97314066 0.94855887 0.83534265 1.040581 1.2055203
1.0800992 1.1031835 0.9611178 0.9190947 1.1178005 1.0427458 1.1010312 1.0954214
1.0621867 0.99627376 1.1518921 1.0436705 1.0191462 0.9697469 0.9349197 0.9821199
0.8455049 1.0702096 0.9751328 0.84670156 1.0204386 1.0922135 -0.021916194 1.1020288
1.0220433 1.0396312 -1.1389728 0.728235 1.0175028 1.0095673 0.8996132 0.8673549
0.90569246 1.0403576 -2.2526245 1.0101253 1.0349717 1.0061085 1.1378914 1.154734
1.0994964 0.9601701 0.8892014 1.0164706 1.0397662 1.0594653 0.8519139 1.0418769
1.1139363 0.8167678 0.90686905 0.9431267 1.1704447 1.0083431 0.8554084 0.97192895
0.8809726 1.2308983 0.98103756 0.8892362 0.91661155 1.136465 -0.08509551 1.3575338
-2.2843733 0.9002824 0.92272186 0.9275298 1.0042095 0.98951995 0.8847248 1.0038677
0.9378197 0.98557156 1.1834584 1.2494866 0.8963528 1.122616 0.8988434 1.0732061
-1.7965369 0.9016391 1.0011555 1.1237563 1.0216503 0.9967123 1.0253676 1.0159749
0.94929576 1.1274562 0.8749306 0.9430039 0.99464434 1.0734777 1.016384 1.0348387
0.95765716 1.2041965 0.9509817 0.87694025 1.0841324 0.84435326 1.1021276 0.9677633
0.7897746 1.2117196 0.87551856 1.0011789 0.9782608 0.97191167 0.84389323 0.9592254
0.93335414 1.1031072 1.1613513 0.9343776 2.1745117 0.9053483 0.9490726 1.011776
-0.05295318 -0.05128042 0.009500266 0.009244893 -0.009631669 -0.037238255 -0.047425073 -0.1487091
-0.07061747 -0.03829183 1.2389595e-05 -0.021145197 -0.10224921 -0.13069107 0.005330558 -0.13425152
-0.05159657 -0.022697859 -0.0023628103 -0.0576448 -0.012308806 -0.088228956 -0.12193824 -0.02112487
0.0021592353 -0.12074479 -0.044167574 -0.039892673 -0.11963688 -0.13981126 -0.08523225 -0.14731167
-0.036792405 -0.0010997222 0.31038788 -0.097122125 0.0033293471 -0.054803766 -0.11910129 -0.06665415
-0.053299714 0.008500299 0.23825458 -0.12293509 -0.039808977 -0.040649634 0.021995584 -0.10063518
-0.05544736 -0.016382957 -0.04781321 -0.0617388 0.010645683 -0.13707691 -0.009165465 -0.035354827
-0.023533277 -0.035076946 0.017547922 -0.09626376 -0.05612532 0.007484128 -0.09033809 -0.07534845
-0.10787138 -0.010902822 -0.11252956 -0.024211898 -0.09273811 -0.13119414 0.032898575 0.031085249
0.24888586 -0.105171435 0.039271306 -0.07276354 -0.018875306 -0.033328295 -0.02945768 -0.08971218
-0.08850886 -0.11997812 -0.10198628 0.01476188 0.032863744 -0.108401984 -0.09306603 0.012454038
0.25455558 -0.052865054 -0.14234127 -0.0700359 -0.035656095 -0.09782782 -0.011769325 -0.03069792
-0.12956718 -0.10709504 -0.012059441 -0.0899358 -0.11800873 -0.1119147 -0.10429963 0.013659731
-0.04453643 -0.115857854 -0.106622666 0.024449056 -0.0657325 -0.1449991 -0.010630752 -0.10163895
-0.093699 0.05712299 0.0039227917 -0.14812069 -0.114242375 -0.11926853 -0.10457565 -0.043228794
-0.052006938 0.0030411547 -0.12419947 0.011370966 -0.034926813 -0.10785853 -0.123082526 -0.067902185
00000000: 75fd 793f d6d4 793f a06d 9a3f bf1f 793f
00000010: c1d4 723f 04d9 553f c231 853f 7d4e 9a3f
00000020: b140 8a3f 1e35 8d3f d10b 763f ca49 6b3f
00000030: 1614 8f3f b278 853f 97ee 8c3f c536 8c3f
00000040: bcf5 873f cc0b 7f3f 3371 933f ff96 853f
00000050: 6273 823f 5541 783f e656 6f3f 366c 7b3f
00000060: 0273 583f a1fc 883f 4ea2 793f 6fc1 583f
00000070: bb9d 823f a7cd 8b3f 9789 b3bc 480f 8d3f
00000080: 51d2 823f a312 853f dcc9 91bf 9c6d 3a3f
00000090: 883d 823f 8039 813f 0d4d 663f f90a 5e3f
000000a0: 76db 673f 702a 853f 002b 10c0 c94b 813f
000000b0: f479 843f 2ac8 803f 6da6 913f 53ce 933f
000000c0: 4cbc 8c3f b5cd 753f b4a2 633f b51b 823f
000000d0: 0f17 853f 8f9c 873f 0817 5a3f 395c 853f
000000e0: 7795 8e3f b217 513f 9228 683f c070 713f
000000f0: 22d1 953f 6311 813f 0bfc 5a3f 56d0 783f
00000100: 6c87 613f 138e 9d3f 4725 7b3f fca4 633f
00000110: 0ea7 6a3f af77 913f 8e46 aebd abc3 ad3f
00000120: 2c33 12c0 e878 663f 8037 6c3f 9872 6d3f
00000130: f089 803f 2e51 7d3f 537d 623f bd7e 803f
00000140: f414 703f 6b4e 7c3f 917b 973f 2def 9f3f
00000150: 6177 653f e2b1 8f3f 9a1a 663f d15e 893f
00000160: ecf4 e5bf d2d1 663f dd25 803f 3fd7 8f3f
00000170: 70c5 823f 8a28 7f3f 3f3f 833f 770b 823f
00000180: 0c05 733f 7c50 903f 74fb 5f3f b468 713f
00000190: 03a1 7e3f b867 893f df18 823f 9875 843f
000001a0: 0529 753f 1c23 9a3f 8973 733f 287f 603f
000001b0: dac4 8a3f 8927 583f 8412 8d3f 56bf 773f
000001c0: ab2e 4a3f a119 9b3f fc21 603f a126 803f
000001d0: 4d6f 7a3f 34cf 783f 6309 583f cc8f 753f
000001e0: 4cf0 6e3f 9e32 8d3f 29a7 943f 5f33 6f3f
000001f0: 332b 0b40 e8c4 673f 6cf6 723f e081 813f
00000200: 6fe5 58bd 6b0b 52bd 01a7 1b3c e477 173c
00000210: 26ce 1dbc 2487 18bd cb40 42bd 3347 18be
00000220: e49f 90bd e5d7 1cbd e8dc 4f37 b138 adbc
00000230: 0968 d1bd e1d3 05be f6ab ae3b 3b79 09be
00000240: ed56 53bd dcf0 b9bc 61d9 1abb f41c 6cbd
00000250: e0aa 49bc 62b1 b4bd c2ba f9bd 100e adbc
00000260: f581 0d3b 0b49 f7bd 0fe9 34bd 8066 23bd
00000270: 2e04 f5bd af2a 0fbe 3f8e aebd dfd8 16be
00000280: a2b3 16bd 8e24 90ba 29eb 9e3e f7e7 c6bd
00000290: 2d31 5a3b ea79 60bd 61eb f3bd f981 88bd
000002a0: cd50 5abd d744 0b3c 02f9 733e 64c5 fbbd
000002b0: bd0e 23bd 3b80 26bd 1530 b43c d119 cebd
000002c0: c51c 63bd 8d35 86bc c9d7 43bd d3e1 7cbd
000002d0: 3b6b 2e3c e45d 0cbe bf2a 16bc 39d0 10bd
000002e0: dcc8 c0bc d8ac 0fbd a9c0 8f3c ef25 c5bd
000002f0: aae3 65bd 6a3d f53b 2d03 b9bd 4a50 9abd
00000300: aceb dcbd c0a1 32bc e675 e6bd 0858 c6bc
00000310: 7aed bdbd c257 06be a8c0 063d 7ea6 fe3c
00000320: efdb 7e3e 1f64 d7bd f3da 203d 0d05 95bd
00000330: 63a0 9abc 4083 08bd 3c51 f1bc 05bb b7bd
00000340: 2244 b5bd 17b7 f5bd 2fde d0bd d0db 713c
00000350: 229c 063d dc01 debd 6799 bebd 050c 4c3c
00000360: 1c55 823e 0789 58bd e9c1 11be fb6e 8fbd
00000370: 200c 12bd f459 c8bd 20d4 40bc 347a fbbc
00000380: 42ad 04be a554 dbbd f694 45bc 4330 b8bd
00000390: 90ae f1bd 8933 e5bd 0b9b d5bd 10cd 5f3c
000003a0: d56b 36bd e246 edbd fc5c dabd 6349 c83c
000003b0: c39e 86bd a57a 14be 9b2c 2ebc 1528 d0bd
000003c0: 43e5 bfbd ccf9 693d c38a 803b f3ac 17be
000003d0: e8f7 e9bd 0f43 f4bd c22b d6bd ad10 31bd
000003e0: 3a05 55bd 1c4e 473b 4b5c febd 4a4d 3a3c
000003f0: 6b0f 0fbd efe4 dcbd b112 fcbd 4d10 8bbd

layer2.bias f4 [128]
2.1730433 0.16330154 2.0195312 -0.08826916 2.036886 2.1070201 2.0930502 2.1064627
-0.051630016 0.0590688 -0.035631407 1.9966649 2.133373 0.005352932 -0.024761742 1.9786007
2.1380775 0.05486302 -0.046507377 2.204777 2.0863912 0.7498276 -0.03889547 -0.058413506
1.9813195 0.004973121 2.0031033 2.0843544 2.031412 2.0141475 2.0400012 2.1349337
0.15189564 2.050031 0.037741233 2.0025985 1.9903151 0.58871853 -0.08576918 2.0019882
-0.10835689 2.1742697 -0.051831216 2.0514157 0.61032325 2.0293996 2.1282167 -0.038491733
2.121025 0.42877737 2.0884836 -0.10672063 2.2179465 0.024411347 0.032920156 2.019114
-0.010975204 -0.031029383 1.9346423 2.1263492 0.436615 0.7280738 2.084978 1.9986287
0.6114211 2.1580245 2.1348157 2.0313435 -0.10814746 1.9720887 0.7112523 1.9563979
1.9237981 -0.001400643 -0.035436627 1.898279 2.0776567 0.019797675 2.0793233 2.0590298
1.9870592 0.04589002 2.2187197 0.8289278 1.9103492 2.0021007 0.38692197 2.0180597
0.5282148 2.025727 -0.037391137 2.160389 -0.05102853 -0.06091345 1.9951892 0.074109934
1.9248825 0.052384317 2.00236 2.0219705 2.0835676 0.015981883 2.1072798 -0.036347765
2.0884886 2.0233302 -0.118030466 -0.08084172 2.0556328 0.018131703 1.0125601 0.059455797
2.0703776 -0.10160299 0.7039025 -0.04508296 2.1903055 2.0655892 2.0385664 2.2175443
0.06966848 0.88880605 0.59984696 2.1661806 2.1234307 0.36614627 0.044797037 -0.0035456566
00000000: 2413 0b40 8538 273e 0040 0140 76c6 b4bd
00000010: 575c 0240 6bd9 0640 89f4 0540 49d0 0640
00000020: ff79 53bd 20f2 713d 3df2 11bd b792 ff3f
00000030: 2f89 0840 a667 af3b 23d9 cabc ca42 fd3f
00000040: 43d6 0840 0cb8 603d 857e 3ebd 111b 0d40
00000050: 6f87 0540 b4f4 3f3f db50 1fbd 0043 6fbd
00000060: e19b fd3f 90f5 a23b d832 0040 1066 0540
00000070: a702 0240 cbe7 0040 618f 0240 c1a2 0840
00000080: 888a 1b3e b533 0340 8d96 1a3d 932a 0040
00000090: a5c2 fe3f 42b6 163f c0a7 afbd 9320 0040
000000a0: 38ea ddbd 3c27 0b40 f84c 54bd 654a 0340
000000b0: 253e 1c3f afe1 0140 b434 0840 82a9 1dbd
000000c0: e0be 0740 b588 db3e b7a9 0540 5890 dabd
000000d0: d6f2 0d40 4efa c73c 49d7 063d 2a39 0140
000000e0: 58d1 33bc 5531 febc 5ca2 f73f 1b16 0840
000000f0: 008c df3e 0b63 3a3f 4870 0540 11d3 ff3f
00000100: 1886 1c3f 131d 0a40 d2a0 0840 8801 0240
00000110: 6a7c ddbd 676d fc3f a114 363f 3f6b fa3f
00000120: 043f f63f c895 b7ba ff25 11bd cefa f23f
00000130: 54f8 0440 bc2e a23c a213 0540 25c7 0340
00000140: f557 fe3f 2cf7 3b3d 81ff 0d40 9d34 543f
00000150: 5386 f43f 6b22 0040 a31a c63e e427 0140
00000160: 1639 073f 83a5 0140 7327 19bd d043 0a40
00000170: 4b03 51bd 6280 79bd 5c62 ff3f f3c6 973d
00000180: 8d62 f63f f090 563d ab26 0040 f767 0140
00000190: 2c59 0540 70ec 823c acdd 0640 65e1 14bd
000001a0: cca9 0540 3e7e 0140 f5b9 f1bd 5890 a5bd
000001b0: 7d8f 0340 f088 943c 929b 813f ec87 733d
000001c0: 1181 0440 3a15 d0bd f432 343f e9a8 38bd
000001d0: f72d 0c40 9d32 0440 df77 0240 3fec 0d40
000001e0: 59ae 8e3d cb88 633f 928f 193f b4a2 0a40
000001f0: 4ae6 0740 8677 bb3e 197d 373d 3f5e 68bb

layer3.weight f4 [7, 128]
0.7076075 0.24330607 0.643114 -0.08150249 0.627314 0.64121747 0.62023026 0.62291425
0.019850906 0.03898695 -0.044219244 0.539171 0.5639223 -0.04920068 0.016164744 0.67142314
0.6850753 0.008171841 0.002534288 0.5672245 0.6618147 -0.1544418 -0.05618041 -0.04704471
0.708322 -0.044937845 0.65036666 0.5510441 0.5670771 0.6048334 0.65037316 0.5939807
0.09049897 0.692707 -0.058240697 0.6596291 0.55854356 0.3239603 -0.011946506 0.6442896
0.016951714 0.57997495 -0.02627332 0.5492699 0.269172 0.68332714 0.691145 -0.07207017
0.6275342 0.004902376 0.58630055 0.021690827 0.61182094 -0.05540044 -0.043717388 0.5394939
-0.058309443 -0.061654396 0.55996156 0.6656097 0.1295389 0.12336897 0.64412344 0.6655839
-0.15097947 0.6128201 0.65240407 0.62858313 0.034822464 0.6595201 0.062217254 0.58787674
0.68232995 -0.0032122508 -0.08207194 0.5706766 0.6340057 -0.078307375 0.5818559 0.64613223
0.6930908 0.16766281 0.6690946 -0.18950933 0.5512828 0.6913304 0.093002595 0.67643654
0.22000547 0.5541813 0.07699496 0.6672473 0.05289659 -0.07270968 0.6903436 0.12547138
0.55591786 -0.010638374 0.64859986 0.5262615 0.62336785 -0.03050825 0.6503996 -0.044210367
0.55896884 0.5796052 -0.028802993 0.021239102 0.654154 -0.07391479 -0.11545824 -0.04916915
0.6599033 0.00073697016 -0.19344144 0.0019933 0.65516907 0.6443438 0.7117128 0.6055287
0.16567738 -0.17392229 0.1953208 0.6036008 0.64422613 0.16160531 -0.043342974 -0.062179647
0.60145825 -0.003486089 0.5727589 0.03409744 0.5966961 0.7140356 0.69143015 0.6872371
0.08692519 -0.078109905 0.08186877 0.6572308 0.6232489 -0.04719971 0.050755326 0.6488868
0.6610219 -0.030408142 0.04091865 0.69125044 0.60379887 -0.46064487 -0.012395676 -0.011262961
0.62065065 -0.06960785 0.62613165 0.5980927 0.6359473 0.6097029 0.63796586 0.63367087
-0.022949757 0.6179297 0.057701487 0.5618301 0.68787885 -0.22056854 0.02179467 0.62249887
-0.07580113 0.6671701 -0.077828504 0.53309846 -0.2949219 0.7042837 0.58555394 0.057557065
0.58989525 -0.38157645 0.67620486 -0.031307727 0.5699315 0.01575005 -0.03215773 0.6934251
-0.006458111 0.075326405 0.6339604 0.5536538 0.09740012 -0.2633132 0.61276674 0.613777
-0.43507785 0.6654446 0.6817944 0.65209335 -0.07264737 0.6756429 -0.33418548 0.4650535
0.58169955 0.048957087 -0.044313155 0.55032074 0.5310517 -0.0614219 0.5791343 0.6091654
0.61849725 0.15625355 0.63315237 -0.19057779 0.5199003 0.52901757 0.11378849 0.65000784
0.14108063 0.6923368 0.025119983 0.6877151 0.08603519 0.08814324 0.58577806 0.09856398
0.56315964 0.0073347692 0.56096643 0.64377 0.5306198 -0.014059745 0.64781356 0.06711387
0.5973509 0.51729923 -0.039801512 -0.08767462 0.58424926 0.0014545694 -0.55659026 -0.037055742
0.5937167 -0.075256445 -0.37385166 0.028218009 0.57877326 0.5760614 0.67227894 0.5438779
0.038034182 -0.28757647 -0.23845021 0.6237581 0.6659546 -0.03180163 -0.030197207 -0.023172371
00000000: c425 353f 3a25 793e 1ea3 243f c7ea a6bd
00000010: a697 203f d426 243f 69c7 1e3f 4f77 1f3f
00000020: 5e9e a23c c8b0 1f3d 3d1f 35bd 1c07 0a3f
00000030: 365d 103f a786 49bd ed6b 843c 63e2 2b3f
00000040: 1861 2f3f 2fe3 053c 4c16 263b a035 113f
00000050: b06c 293f fe25 1ebe 6e1d 66bd f4b1 40bd
00000060: 9754 353f bf10 38bd 6e7e 263f 3a11 0d3f
00000070: f72b 113f 5dd6 1a3f db7e 263f 1f0f 183f
00000080: 8657 b93d 3f55 313f cc8d 6ebd 74dd 283f
00000090: b6fc 0e3f 20de a53e 47bb 43bc 2af0 243f
000000a0: 52de 8a3c 3d79 143f 253b d7bc f49c 0c3f
000000b0: ead0 893e 87ee 2e3f e1ee 303f 8699 93bd
000000c0: 15a6 203f 1ca4 a03b cb17 163f f6b0 b13c
000000d0: 4ca0 1c3f 92eb 62bd 0111 33bd 461c 0a3f
000000e0: e2d5 6ebd 5289 7cbd a459 0f3f 6665 2a3f
000000f0: d8a5 043e dfa8 fc3d 46e5 243f b563 2a3f
00000100: 5d9a 1abe c7e1 1c3f f403 273f d3ea 203f
00000110: 00a2 0e3d 4fd6 283f 85d7 7e3d 177f 163f
00000120: 2dad 2e3f a084 52bb 5515 a8bd dd17 123f
00000130: 334e 223f 9e5f a0bd 82f4 143f ec68 253f
00000140: 666e 313f cdaf 2b3e c949 2b3f bc0e 42be
00000150: df20 0d3f 07fb 303f 2578 be3d f22a 2d3f
00000160: 1d49 613e d3de 0d3f 89af 9d3d b8d0 2a3f
00000170: 18aa 583d d0e8 94bd 5cba 303f 927b 003e
00000180: a250 0e3f 934c 2ebc a40a 263f 13b9 063f
00000190: 0995 1f3f 70ec f9bc 9780 263f ee15 35bd
000001a0: 9518 0f3f 0261 143f 41f4 ebbc a0fd ad3c
000001b0: a376 273f a360 97bd 5f75 ecbd 9765 49bd
000001c0: 6cef 283f 3b31 413a 8315 46be 06a2 023b
000001d0: 29b9 273f b7f3 243f cf32 363f ee03 1b3f
000001e0: 55a7 293e af18 32be 2d02 483e 9585 1a3f
000001f0: 01ec 243f dd7b 253e 6788 31bd 16b0 7ebd
00000200: 2bf9 193f de76 64bb 54a0 123f c2a9 0b3d
00000210: 13c1 183f 09cb 363f 9101 313f c5ee 2f3f
00000220: d605 b23d 16f8 9fbd d0aa a73d 4740 283f
00000230: 3d8d 1f3f 7c54 41bd d1e4 4f3d 721d 263f
00000240: bb38 293f 7f1a f9bc 509a 273d caf5 303f
00000250: 9092 1a3f a5d9 ebbe 3c17 4bbc 4888 38bc
00000260: f6e2 1e3f 8f8e 8ebd 2a4a 203f 9a1c 193f
00000270: 71cd 223f 7d15 1c3f bb51 233f 4138 223f
00000280: 2101 bcbc a430 1e3f 6558 6c3d 19d4 0f3f
00000290: d418 303f b8dc 61be bc8a b23c 165c 1f3f
000002a0: 9f3d 9bbd a9cb 2a3f 8d64 9fbd 2479 083f
000002b0: 0100 97be f04b 343f dde6 153f f5c0 6b3d
000002c0: 6003 173f fd5d c3be c31b 2d3f 883c 00bd
000002d0: 08e7 113f 4006 813c d3b7 03bd 4f84 313f
000002e0: 909e d3bb bb44 9a3d 3b4b 223f 41bc 0d3f
000002f0: b779 c73d fdd0 86be 48de 1c3f 7d20 1d3f
00000300: 86c2 debe 945a 2a3f 148a 2e3f 97ef 263f
00000310: 25c8 94bd eff6 2c3f 5c1a abbe 7e1b ee3e
00000320: 43ea 143f 3a87 483d b681 35bd d2e1 0c3f
00000330: 01f3 073f 8895 7bbd 2542 143f 43f2 1b3f
00000340: d655 1e3f ee00 203e 4616 223f d326 43be
00000350: 3018 053f b26d 073f f109 e93d ea66 263f
00000360: 7177 103e fc3c 313f 6cc8 cd3c 190e 303f
00000370: 3833 b03d 7184 b43d 8df5 153f e9db c93d
00000380: 3b2b 103f 8158 f03b 7f9b 0f3f 1cce 243f
00000390: b3d6 073f d85a 66bc 1cd7 253f ff72 893d
000003a0: fdeb 183f b96d 043f e906 23bd c08e b3bd
000003b0: 5c91 153f 40a7 be3a b37c 0ebf c3c7 17bd
000003c0: d1fd 173f 0d20 9abd 7c69 bfbe 7429 e73c
000003d0: 7c2a 143f c378 133f 791a 2c3f 953b 0b3f
000003e0: bbc9 1b3d 393d 93be 4b2c 74be 9cae 1f3f
000003f0: 007c 2a3f 6d42 02bd 2260 f7bc fcd3 bdbc

layer3.bias f4 [7]
1.1280652 0.9997125 0.9189435 0.20983104 0.60280323 1.1428437 0.61628985
00000000: 7164 903f 29ed 7f3f e23f 6b3f f3dd 563e
00000010: 5051 1a3f b448 923f 2cc5 1d3f
